bot_brain.pth (torch, 181596 bytes, 6 tensors)

net.0.weight f4 [256, 18]
000000 88 79 c3 bd 81 7b 29 bd 94 d0 2b bd bd 91 2d 3e
       -0.095446646 -0.041377548 -0.041946962 0.16950126
000010 39 2c 13 3e cf cf 24 bd 4b 4d ba bd e8 eb 26 3d
       0.14372338 -0.040237244 -0.09096774 0.04075232
000020 a4 41 6f 3d f9 22 5f be 50 5f 07 be f4 e0 de 3d
       0.05841221 -0.21790685 -0.13219953 0.1088275
000030 14 89 20 bd 4b 1c 4f 3e e6 a8 ab 3d d2 1e 6a be
       -0.039193228 0.20225637 0.08381824 -0.2286332
000040 7f e2 81 be 53 58 1c bd 37 73 29 3e 12 22 22 be
       -0.25368115 -0.03817017 0.16547857 -0.1583331
000050 fd 5d a3 bd 47 12 a2 3e 43 64 d9 bd c4 f0 c6 3d
       -0.07976911 0.3165457 -0.106148265 0.09713891
000060 38 2d e9 3c 9e b4 a0 3c 51 c2 8f bd ba 18 70 be
       0.028463945 0.019617375 -0.07019485 -0.23446932
000070 bb fc db bb d6 ff df bd 88 5f 56 bd de 88 94 3d
       -0.0067134774 -0.10937469 -0.0523372 0.07252668
000080 64 ff 61 bd 30 2c 0f be 9b 09 96 be b5 31 bb be
       -0.0551752 -0.139817 -0.29304203 -0.3656136
000090 99 8e a8 bd 46 f6 64 3d 62 b1 2a be 01 46 d8 3d
       -0.08230323 0.055898927 -0.16669229 0.10560227
0000a0 9b d1 ac 3d 77 eb 0e 3d 17 57 9c 3d 74 ef 39 be
       0.084384166 0.034892526 0.076337986 -0.1815775
0000b0 9f 9b 05 3e 42 2d 13 3d 97 ff 63 be 00 9e 67 3c
       0.13047646 0.035931833 -0.22265469 0.014136791
0000c0 80 4e ac 3a 2c a4 11 be bd 6e 2e 3e 12 bd 18 bd
       0.0013145953 -0.14222783 0.17034431 -0.037289687
0000d0 61 da 56 be 21 87 c9 bd 42 b4 87 bd 6b 79 4b be
       -0.20981742 -0.09840227 -0.06626178 -0.19870536
0000e0 d6 65 a7 3d c4 46 e4 bd 00 bb 2b ba 73 99 fd bd
       0.081737205 -0.1114631 -0.00065509975 -0.12382784
0000f0 20 88 68 3c e4 bb 52 bd 32 8b 8e 3d 11 72 0f be
       0.014192611 -0.051448718 0.06960143 -0.14008357
000100 fa a2 8e 3d 41 03 65 3e e7 ae 45 be 63 73 4e be
       0.06964679 0.22364523 -0.19305001 -0.20161204
000110 d1 5b 31 3e 0c e8 3a be e0 7c 5d be c9 7c f1 bd
       0.17320181 -0.18252581 -0.21629667 -0.11791379
000120 dd b1 d9 bc ab ad 65 3e 99 9e 05 bf 88 32 01 3f
       -0.02657407 0.2242953 -0.52195126 0.5046773
000130 ce c1 1f 3e fe b6 ad be 22 c8 1e be 64 f6 2e 3e
       0.15601274 -0.33928674 -0.15506032 0.17086178
000140 46 0c 2b 3f 73 d3 87 be aa f3 04 be 6d 79 bd be
       0.668156 -0.2652851 -0.12983575 -0.37006703
000150 d8 a6 2c be 9b d5 38 be 14 18 cc bd 17 28 29 3e
       -0.16860521 -0.18050234 -0.0996553 0.165192
000160 b6 27 a7 3d 2c f9 f7 3d bb bf 70 3e 45 41 0c 3e
       0.08161871 0.12108073 0.2351064 0.13696773
000170 4f 2d 9f be 31 a5 c8 3d e7 da a3 be 6c bc a3 be
       -0.31089255 0.09797133 -0.32002947 -0.31979692
000180 cd ee 73 3e 28 f2 99 3b 40 91 8c 3f 7d 0a 27 3e
       0.23821564 0.0046980567 1.0981827 0.16312595
000190 e8 e6 77 3e fd f1 c7 be 13 64 52 3e 47 aa 61 be
       0.24209177 -0.3905181 0.20545988 -0.22037612
0001a0 19 b0 1c be b6 57 34 3e aa 27 b3 3d 7a d1 09 be
       -0.15301551 0.17611584 0.087478 -0.13458815
0001b0 11 9e 30 be c5 94 b8 bd 8d a3 1c bf 56 04 ea bd
       -0.17247798 -0.090127505 -0.6118706 -0.11426608
0001c0 d3 4a 98 3e 8c b4 3b be 40 6f 84 be 3f c0 18 be
       0.29744586 -0.18330592 -0.25866127 -0.14917086
0001d0 12 89 ee bd 08 1b f2 bd 99 5e 12 be cc fb 62 bf
       -0.11647238 -0.11821562 -0.14293899 -0.8866546
0001e0 0c c2 80 bd 68 5a ad 3c 36 2c ae bd 0e 40 3d bd
       -0.062870115 0.021161273 -0.08504526 -0.046203665
0001f0 a7 4b 64 bf 54 57 e5 3d 84 7c 46 be db 98 2e 3e
       -0.89177936 0.11198297 -0.19383436 0.17050497
000200 2e 8e f0 bd ef fc 8f 3e 7b 70 82 be 6c 21 a7 bd
       -0.117458686 0.2812266 -0.2547644 -0.081606716
000210 6c 02 af 3e e4 b0 e3 be c1 ee b6 be c7 e1 a8 3c
       0.34181535 -0.44470894 -0.3572903 0.020615472
000220 6c 82 96 3e 0f ee b1 be 7d d7 11 be 64 df 3f 3d
       0.2939638 -0.34751937 -0.14242359 0.0468439
000230 7d d1 08 3e 1b 12 6c 3e 13 6a 85 3d d3 19 1a be
       0.13361163 0.23053782 0.06514373 -0.15048914
000240 90 36 a2 be 9e b5 96 3d c9 f6 ca be d8 b4 16 3f
       -0.31682253 0.073588595 -0.39641407 0.58869696
000250 a9 1b f5 3d 34 ae 8d 3e b9 b7 95 be 50 20 b3 be
       0.119681664 0.2767197 -0.29241732 -0.3498559
000260 bf c2 04 3f ca 47 81 be 5c ee 8c 3e c7 9c 61 bd
       0.5185966 -0.25250083 0.27525604 -0.055081155
000270 99 43 5e 3e 6c 68 35 be e3 35 23 3e 6b f8 43 3e
       0.21705474 -0.17715615 0.15938525 0.19137733
000280 45 56 9b 3d 27 f7 48 3e ab f5 71 3e b6 53 95 3e
       0.07584814 0.19625531 0.23628871 0.2916543
000290 22 b8 88 3c a2 d6 e3 3e 11 ef a4 bd 35 e3 b6 3e
       0.016689364 0.4449969 -0.08053411 0.3572022
0002a0 ea 73 1b be 2b ef a9 be 22 26 25 3d 0e 70 1e be
       -0.15180936 -0.33190283 0.04031957 -0.15472433
0002b0 7c 74 63 3e 5d 4a 32 bd fb 25 59 3e 14 7b 34 be
       0.22212404 -0.04352795 0.21205895 -0.17625076
0002c0 38 c7 e5 3c 39 e9 96 3d e2 de af bd 35 37 48 be
       0.028049096 0.073687024 -0.085874334 -0.1955231
0002d0 6c ef e2 bc 14 76 0e 3c 76 c0 3e bf 7a 31 99 3d
       -0.027702056 0.008695144 -0.7451242 0.0748014
0002e0 43 10 d6 bc ae 07 8a bd 82 61 a9 be 56 3c b1 3c
       -0.026130801 -0.06739746 -0.33082205 0.021635216
0002f0 df 45 0a be ba cc 71 be 91 9b b8 be 44 68 62 bf
       -0.13503216 -0.23613253 -0.36056188 -0.88440347
000300 ee 8c a3 3d b7 bc 33 3e 10 5c 05 bd b3 af f9 3d
       0.079858646 0.17552458 -0.0325585 0.12191715
000310 64 e4 14 bf fd 35 f9 be cd b7 c3 3d 48 7e 38 be
       -0.58160996 -0.48674002 0.095565416 -0.18016922
000320 d5 26 4a be f0 33 87 be 59 4e a2 3d c2 c5 e1 3d
       -0.19741376 -0.26406813 0.079251 0.110240474
000330 d7 8a 6b bc ee de 91 be 68 85 44 3e a5 d7 96 be
       -0.014376364 -0.28490394 0.19191515 -0.294614
000340 8b e6 2d 3b 9a a2 aa bb 00 52 cc ba 98 8c 44 bd
       0.002653512 -0.005207372 -0.0015588403 -0.047985643
000350 8d 93 3c be c0 97 01 be 93 62 92 be 12 d9 83 3d
       -0.18415661 -0.12655544 -0.2859083 0.06437887
000360 c7 3f 1c be 3a ab 90 be 63 96 23 be 3c b8 9a 3d
       -0.15258704 -0.28255635 -0.15975337 0.07554671
000370 79 d2 f8 3d ce f0 b4 3c 04 90 af 3b d1 01 12 be
       0.121495195 0.02208748 0.005357744 -0.14258505
000380 64 73 e4 3d 8c 1c e0 3d b8 52 f9 3d 1b 85 06 bc
       0.111548215 0.10942945 0.121739805 -0.008210446
000390 98 6b 91 3c 52 ea 85 3d 3e 78 22 be 32 8f 43 be
       0.0177515 0.06538834 -0.15866181 -0.19097593
0003a0 cb c3 2c 3c 2d 6b 8b bd 1c e5 ae bd 53 0f 87 be
       0.010544728 -0.068075515 -0.08539793 -0.2637888
0003b0 2b 6d af 3d 81 fb de be 2f 06 b4 3b d2 55 e7 3d
       0.08565744 -0.43551257 0.005493901 0.11295666
0003c0 aa 2e 5a bd 70 95 91 be c4 22 51 3e 80 34 ad 3c
       -0.05326716 -0.28434324 0.20423418 0.021143198
0003d0 86 18 3a 3e 67 d3 a0 3d 58 28 d9 3c 51 0b 03 3e
       0.18173417 0.07852822 0.026508495 0.12797286
0003e0 52 bc cc 3d 12 30 d2 bd f2 96 35 be 4c 09 07 be
       0.09996857 -0.10263075 -0.17733362 -0.1318714
0003f0 59 e8 e7 bc e4 e0 9f 3c ff 06 17 be 59 fd 33 3e
       -0.028309034 0.019516416 -0.14748763 0.17577113

net.0.bias f4 [256]
000000 64 e8 87 be 1c c2 b4 3d e3 53 2d be 5d 50 41 be
       -0.26544487 0.08826086 -0.16926531 -0.18878312
000010 67 be 5b bb 09 57 ba 3e 6f 66 e5 3d 43 c2 94 3e
       -0.0033530237 0.36394528 0.11201178 0.2905446
000020 3b 4c 8c 3e 0e ae 22 be 95 73 e9 bd a2 56 4b be
       0.2740191 -0.15886709 -0.11398999 -0.19857267
000030 0a 70 c3 bc 78 52 50 3c 1f ac ab bd b7 5e da 3c
       -0.023857135 0.012714975 -0.08382439 0.026656492
000040 49 39 8d be 20 e7 a0 bd fc f2 87 3e 24 fb 37 3e
       -0.27582768 -0.078565836 0.2655257 0.17966896
000050 08 02 12 be 35 28 71 be b7 f9 0b 3d d2 ba 62 be
       -0.14258587 -0.23550494 0.034173694 -0.22141579
000060 47 a2 c8 bd 0f 1c c1 bd 29 78 7a be 30 ed 23 3d
       -0.09796577 -0.0942918 -0.244599 0.04002112
000070 16 22 8d 3e b3 63 b5 be 67 d9 a2 3e 72 ea 3a 3d
       0.27565068 -0.35427627 0.3180649 0.04563374
000080 50 09 ae 3e ec bf aa be 87 c1 6f be c5 16 ae 3d
       0.3399148 -0.3334955 -0.23413669 0.08500437
000090 86 61 b9 be 1b 8e d6 3b bd 92 44 be a5 41 a5 bb
       -0.36207217 0.006547702 -0.19196601 -0.005043226
0000a0 e4 23 42 bd 97 e2 b7 3d f6 41 20 bd 27 8b 8f be
       -0.04739751 0.089787655 -0.039125405 -0.28035852
0000b0 d0 75 19 bd 88 92 c4 bc 7f a1 ab bd 91 31 62 be
       -0.03746587 -0.023995653 -0.08380412 -0.2208922
0000c0 90 60 c7 bd 3d c7 50 be bf ac a9 3d 63 e6 de 3c
       -0.09735215 -0.20388503 0.08284902 0.027209466
0000d0 45 18 50 be 34 66 a1 be 6d 22 b7 3d 74 88 8c be
       -0.20321758 -0.31523287 0.08942113 -0.27447855
0000e0 c7 0c 91 3e 03 d4 05 be 0a fc 27 bd 9f 2d 66 bb
       0.2833006 -0.13069157 -0.041011848 -0.0035122407
0000f0 41 91 fc bd 6a b9 b0 be 35 56 62 bd 03 18 a1 bd
       -0.123323925 -0.3451646 -0.055257995 -0.07865908
000100 8b 9b cb 3d 44 e2 be be dc 9f 07 be 29 5b ab bd
       0.09941777 -0.37282002 -0.13244575 -0.08366997
000110 a1 0f 0d 3d 0c 2a 9e 3d 74 f5 fb 3d 89 ee 4a 3e
       0.034438733 0.077228636 0.12302676 0.19817556
000120 0c 23 88 bd ae ab 3d 3d 0b 9b f8 bc 6b ca 9e be
       -0.0664731 0.046306305 -0.030347368 -0.31013808
000130 f2 73 0c be 87 4f a0 3e 9f 17 8e be 24 69 7a be
       -0.13716105 0.31310675 -0.27752396 -0.2445417
000140 31 1e 82 bc bb a8 52 3e 1a f1 c1 3d 4a 72 b6 bd
       -0.015883537 0.20572178 0.094698146 -0.08908518
000150 01 8c 6b 3e bb 00 d3 3c 64 9a cd bd d1 0e 25 3d
       0.23002626 0.025757184 -0.10039213 0.040297333
000160 30 bb 19 bd 75 32 5c 3e 6c 07 21 be 20 bf 7e be
       -0.03753203 0.21503623 -0.15725487 -0.24877596
000170 cd 25 a8 bd 5f 9d c3 3e c7 6d a4 bc 89 ee 37 3d
       -0.08210335 0.38206002 -0.020071877 0.04490522
000180 8a f5 1d 3e 53 15 ce bd 87 fd 9c be 99 7b d9 bd
       0.15425697 -0.10062661 -0.30662176 -0.106192775
000190 a7 47 84 3e b6 b1 a9 3c 9a e5 92 3d 7f 20 99 be
       0.25835916 0.020714622 0.07172699 -0.29907605
0001a0 fa 3a 34 3d 90 c4 20 be dc 44 89 3e b7 53 82 be
       0.044001557 -0.15699983 0.26810348 -0.25454494
0001b0 b8 03 2a be d8 97 c3 bc 29 ef 38 be 46 5e c4 3c
       -0.16602981 -0.023876116 -0.18059982 0.023970734
0001c0 d7 76 a6 bd 2c f3 5b be 41 cd 48 bd 24 1e a3 3a
       -0.08128136 -0.21479481 -0.04902387 0.0012444896
0001d0 af 71 a5 be cc b5 b3 bd e4 b0 84 3b b1 b3 07 3c
       -0.32313296 -0.087749094 0.0040494073 0.008282588
0001e0 d0 65 6a 3e e1 c8 2b 3e 69 51 58 3d 88 53 4a bd
       0.22890401 0.16775848 0.052812014 -0.049396068
0001f0 50 00 39 be a9 d1 46 be 8f 76 52 be 1a a6 84 be
       -0.18066525 -0.19415917 -0.20553039 -0.25907975
000200 16 be 38 bb db 65 77 be f7 3e 44 bd 2b 50 cc 3d
       -0.0028189472 -0.24159949 -0.04791161 0.09976228
000210 be 0c dc 3d ea 79 bc 3d 27 9d ed bd a8 df 44 bd
       0.10744618 0.09202941 -0.1160224 -0.048064858
000220 6e 64 46 be ef ed fb 3d 44 22 26 be ff 8a e0 3d
       -0.19374248 0.123012416 -0.16224009 0.109640114
000230 eb ba 5c 3e be d3 0a 3c 01 35 5e bb 41 a0 f5 bd
       0.21555679 0.008473335 -0.0033906105 -0.11993457
000240 f6 04 97 3d 16 88 67 be 88 19 99 3e 82 23 39 bd
       0.07373993 -0.22610506 0.2990229 -0.04519988
000250 81 ef 79 be c6 eb 86 bd a7 5d c7 3d 5c 27 98 bd
       -0.2440777 -0.06587939 0.0973466 -0.07429382
000260 f0 cb b5 be de 8f c2 3d f6 c1 f2 3d f5 a2 59 be
       -0.35507154 0.09500097 0.11853401 -0.2125357
000270 c2 53 63 be c6 f1 a2 3d aa 62 42 be 5f be aa bc
       -0.2219992 0.07956271 -0.1898295 -0.02084273
000280 ab 8a 7f 3d d6 3b dc bd 41 c3 4f be 2f 23 1f 3b
       0.062388103 -0.107536 -0.20289327 0.0024282446
000290 e6 de 07 be 7a f7 ea 3d 8d 9c 85 be 2f 91 8c bd
       -0.13268623 0.11472984 -0.26096 -0.06863629
0002a0 bb 04 36 bd 09 83 e2 3d 54 02 ea bd c4 96 84 3e
       -0.044438105 0.11060149 -0.11426225 0.25896275
0002b0 3c 75 54 3c d8 05 83 be 64 8f 8d 3e 70 f7 df 3d
       0.012967404 -0.25590396 0.2764846 0.10935867
0002c0 b5 23 ac 3e b1 0b c8 bc 0a a3 c5 3d 7e 5c 80 3e
       0.33620992 -0.024419637 0.09650238 0.25070566
0002d0 cc f6 04 3e 77 ff b4 be cc 7b 9d 3e 0a 8d d4 3d
       0.1298477 -0.35351154 0.30758512 0.103784636
0002e0 21 85 38 3e c9 72 af 3e ae 2e b8 3c 30 cf 66 3e
       0.18019535 0.34267262 0.022483196 0.22539973
0002f0 db bb ce bd 06 a7 bb 3e 1d fe 93 3e f8 57 15 bd
       -0.10094424 0.36650866 0.2890481 -0.036460847
000300 6a 1f 6d be f9 18 d1 bd 05 7d db 3d ba 46 df 3d
       -0.23156515 -0.10209841 0.10717205 0.10902162
000310 88 68 2f 3e 73 65 60 be 81 95 a6 3e d8 d7 68 3e
       0.1712972 -0.219137 0.32535937 0.22738588
000320 82 38 3e 3c c5 72 1a bb 0e 8f 81 be 11 f3 67 bd
       0.011610152 -0.0023566943 -0.25304455 -0.05662829
000330 61 0e 78 3d d6 5b 37 be 5f 5c 97 be 75 05 24 be
       0.060560588 -0.17906126 -0.2956266 -0.16017707
000340 da b5 52 3e 12 00 83 be fe 07 5c bd 63 28 a3 bc
       0.20577183 -0.2558599 -0.05371856 -0.019916719
000350 a5 8a 3e bd 6f 8d 3d 3d 37 b8 94 3e 05 6b 14 be
       -0.04651894 0.04627746 0.29046795 -0.1449395
000360 b8 16 3c 3c b3 06 d6 3d aa 47 19 be c9 5a 4c 3e
       0.011480026 0.104504965 -0.14968744 0.19956507
000370 f9 6b 90 be 2f 8b 89 3d 83 87 5f 3e c6 5d 81 be
       -0.28207377 0.06716 0.21829037 -0.25266856
000380 e1 f8 d9 3d be 39 49 3e ac d0 8a 3e af 11 1d be
       0.10643173 0.19650933 0.2711233 -0.15338777
000390 57 f9 b9 bd f9 43 bc bd e6 3d 23 be 17 40 49 3d
       -0.09080761 -0.09192652 -0.15941581 0.049133386
0003a0 5c 71 85 3e 7c 1b ba 3e 45 83 07 3e a8 44 25 3e
       0.2606305 0.36349094 0.13233669 0.16139472
0003b0 2f 5e b5 be 11 ae 52 be b7 f6 4c be 44 1c 08 3e
       -0.3542342 -0.20574214 -0.20015989 0.13292032
0003c0 55 1e 4b be 0f 94 7e be c6 1e 94 3d aa ff 0e bd
       -0.1983579 -0.24861167 0.07232432 -0.03491179
0003d0 dd 95 8b be 17 34 23 3c c9 fd ce 3d 23 19 70 3d
       -0.27262774 0.00996115 0.101069994 0.058617722
0003e0 02 cb 84 3d dc 7d d8 3d a4 79 7a be 1a b3 25 bc
       0.06484033 0.10570881 -0.24460465 -0.010113502
0003f0 e6 7e 41 bd 90 64 86 be fe b5 e3 bd 9d d9 80 bd
       -0.04724016 -0.26248598 -0.11118697 -0.062915064

net.2.weight f4 [128, 256]
000000 44 33 66 bd c8 1a 4d 3d d0 40 39 bd 60 98 c0 3b
       -0.056201234 0.05007437 -0.045227826 0.0058775395
000010 47 86 0c be 02 a7 0c be 50 4a a9 bc b0 1a 28 bd
       -0.13723098 -0.13735583 -0.020665318 -0.041041076
000020 de be 05 3e aa 02 68 be d7 f2 5d bd 6f f8 04 bd
       0.13061091 -0.22657266 -0.05418667 -0.032463487
000030 b0 49 c9 bc 64 74 71 bd 20 5c eb bb be 99 90 bb
       -0.02457127 -0.05894889 -0.007182613 -0.0044128587
000040 fa 46 c0 bc aa 9e c4 3d fa 8b d3 bd e0 7a 11 3c
       -0.023471344 0.09600575 -0.10329433 0.008879393
000050 d3 93 45 be 2e 7f 7b 3c 34 85 9d be 86 e4 a9 3c
       -0.19294672 0.015350146 -0.30765688 0.020738851
000060 93 bc dc 3b 12 06 08 be d0 da a0 3e d8 51 70 be
       0.006736347 -0.13283566 0.3141694 -0.23468721
000070 c0 9b b9 be 4e 98 24 bd 09 32 21 be 50 93 aa be
       -0.3625164 -0.04018431 -0.15741743 -0.33315516
000080 de 47 fc bd 3e 16 40 bb 53 fc f3 bd 53 d2 74 bd
       -0.12318395 -0.0029310132 -0.119133614 -0.059770893
000090 ae 21 c9 bc e6 8c 19 3d c1 4e 5c bd 12 4c 06 bd
       -0.024552193 0.037487887 -0.053786043 -0.03278739
0000a0 9f 70 be bb 27 fd 79 bd ba c3 2e bd d8 b6 48 bc
       -0.0058117653 -0.06103244 -0.04266713 -0.012250625
0000b0 10 4d cd bd 80 5b d0 3c 66 f9 f8 bc f0 a4 d0 bb
       -0.10024464 0.025434256 -0.03039236 -0.0063673183
0000c0 40 16 ab bc 48 f4 81 bd b0 4c 25 bd 1e 1c 91 3c
       -0.020884633 -0.06345421 -0.040356338 0.017713603
0000d0 e1 2f 97 bb 10 d4 91 3b ea c0 30 3d 9f b6 8e bd
       -0.004613862 0.0044503286 0.043152727 -0.06968426
0000e0 7c 8f af be 79 20 25 bd 60 8a 8d 3e 61 cf d4 3a
       -0.34289157 -0.04031417 0.27644634 0.001623612
0000f0 00 5d 03 3b ad 88 36 bd 04 83 84 bc af 8b 8b bd
       0.0020044446 -0.044563938 -0.016175754 -0.06813752
000100 2e b4 1d bd 17 ac a2 3d 33 51 b6 3c 04 84 0c 3d
       -0.03850191 0.0794298 0.022255516 0.034305587
000110 00 67 b0 bd 85 bd 7e 3c 9b f5 15 3e ee a7 50 3d
       -0.08613396 0.015548115 0.14644472 0.0509414
000120 a1 f1 61 bd 88 ee 05 bd 12 03 09 be bf 80 de bd
       -0.055162076 -0.032698184 -0.13380077 -0.108644
000130 28 8a b9 bc b1 a9 00 3c 99 c6 4d bc 52 88 a3 3c
       -0.022648886 0.007852958 -0.012559556 0.019962464
000140 d6 3b 55 3d 2b d5 67 3e 88 f7 34 bd ac 82 c7 bc
       0.052059017 0.22639911 -0.044181377 -0.024354301
000150 4f 2f 1e 3d 68 22 97 3c f0 fa 91 3c 53 23 9c bd
       0.038619336 0.018449023 0.017819852 -0.07623925
000160 72 f8 28 3e 32 7e ed bd 81 fd e3 bc 14 d7 d3 bd
       0.16501024 -0.115963355 -0.027830841 -0.10343757
000170 1a d9 0a 3b 7d d2 e9 3c 3f bc 95 3d fc df 5a 3c
       0.0021186532 0.028542751 0.07311296 0.013359066
000180 ac 76 e2 3c d7 97 06 be 76 4f 84 3b cf 37 b5 be
       0.027644478 -0.1314386 0.004037793 -0.3539414
000190 4b 71 57 be 1a a3 e2 bb a2 35 1b 3c 92 d6 5e 3d
       -0.21039312 -0.006916416 0.009473236 0.05440385
0001a0 bd ae 88 bd 89 5a a3 bd 07 14 e7 bd 2c e8 bf 3b
       -0.06673954 -0.079762526 -0.11283117 0.0058565345
0001b0 52 d7 5c 3d 81 13 d3 3d fc d1 46 3d 2e 44 b5 bd
       0.053916283 0.103064544 0.0485401 -0.08850895
0001c0 40 54 8f ba 18 ff 0f bd 0c 51 e2 bb 40 ab c5 bb
       -0.0010935143 -0.035155386 -0.006906634 -0.0060323775
0001d0 c5 b8 87 bc 32 95 84 bd ff 86 f8 bc 8d a1 0e 3c
       -0.016567597 -0.06473769 -0.030337809 0.008705509
0001e0 85 e3 3f 3e 3c f7 b1 3c e0 8a bf bc 5d 20 ed be
       0.18739136 0.021724336 -0.02338165 -0.46313754
0001f0 08 90 22 3c 61 c3 d4 bd 99 13 4e bd ea aa d3 bb
       0.009922035 -0.10388828 -0.05031166 -0.0064595835
000200 60 08 24 3b 6c 5d 27 bd 3d 82 a7 bd 61 20 6a bd
       0.0025029406 -0.04086058 -0.08179138 -0.057159785
000210 ac 4b 42 bd e7 01 25 bf 2b 13 de bc bc 2a 03 3d
       -0.047435448 -0.6445603 -0.02710875 0.032023177
000220 06 86 1b bd 88 f9 10 3c 4a 06 49 be 26 0d 8e 3d
       -0.03796961 0.008848555 -0.19631305 0.069361016
000230 e0 7f 95 bd d3 a0 24 3d 5b 51 84 3d 96 5a 08 bd
       -0.07299781 0.040192436 0.0646083 -0.033289514
000240 bb 3c 87 bd 40 fe f0 bb cd 94 33 3d 94 9c 9f 3d
       -0.0660338 -0.0073545277 0.04384308 0.07793537
000250 54 2b 29 3d af ae bb bc 68 d8 21 3e 69 d4 4b 3d
       0.041301087 -0.022910444 0.15805209 0.049763117
000260 40 6a a1 bd c3 0b 73 3c db 24 a7 bd 28 30 e7 bd
       -0.07881594 0.014834347 -0.081613265 -0.11288482
000270 b4 8b 2d bd 75 51 56 bd 42 55 35 bd 66 3c 98 3d
       -0.04236956 -0.052323777 -0.04427076 0.07433395
000280 81 a3 34 bd f0 eb 3e 3d f0 47 b1 3a 14 52 83 bc
       -0.044101242 0.046611726 0.0013525467 -0.016030349
000290 01 10 e6 3c 9e 5e 05 3e 62 1f 8a bd 88 c6 95 3c
       0.028083803 0.13024375 -0.06744267 0.018283144
0002a0 a9 66 be bd 11 1e ab bc dd aa f3 bd 81 e9 80 bd
       -0.092969246 -0.02088836 -0.11897824 -0.06294537
0002b0 db bd c0 3b 84 c1 8b bc 6c 79 f0 3d 28 a7 e2 3c
       0.0058820075 -0.017060049 0.117419094 0.027667597
0002c0 04 b1 77 be c9 e2 c5 be e7 77 a8 bc bb ab 80 be
       -0.2418862 -0.38649586 -0.020564986 -0.2513102
0002d0 6d d1 81 bd 4d 4c e5 3c ba 41 0b 3e 5c 88 a5 bc
       -0.06338773 0.027990485 0.13599291 -0.020206623
0002e0 39 0e d6 be c4 2e 68 3e d1 f4 ed 3d 8b 74 48 be
       -0.41807726 0.2267409 0.11618961 -0.19575708
0002f0 6e 18 1d 3c 2f fd f3 3d 97 61 31 3e 7d 81 59 bd
       0.009588344 0.11913525 0.17322384 -0.053102005
000300 3e 6b f6 bd 1f 8c cd bd ca 79 3e 3d 2e a5 4e 3d
       -0.120321736 -0.100364916 0.046502866 0.050450496
000310 0e 92 86 bd e3 ad 1b bd 3f 75 a8 be 72 5d ea ba
       -0.065708265 -0.03800763 -0.32901952 -0.0017880632
000320 ac c5 21 3d c8 df 17 3d e0 f8 de bd 5a f9 49 3d
       0.039495155 0.03707865 -0.10887313 0.049310066
000330 8e 3e 33 3c 30 0a 48 3d 57 23 ce bb 4b 18 9b 3b
       0.010940207 0.04883784 -0.006290834 0.0047331206
000340 39 87 0d bd 91 e7 f5 bc 3c 70 20 bd d4 65 9e be
       -0.034552786 -0.030017646 -0.039169535 -0.30937064
000350 4e cc 9e 3d bc a9 d9 3c 99 da 5b bc 3a 5f 69 bc
       0.07753812 0.026570193 -0.013418817 -0.014243895
000360 9a 9e 7d be 43 9d 70 be 3d 8b 83 bd cf a3 be 3d
       -0.24767533 -0.2349749 -0.06423042 0.09308588
000370 d4 a1 41 3b 58 a5 11 3c 56 f1 3f bd 37 53 0a bd
       0.002954592 0.008889519 -0.046861015 -0.033770766
000380 c3 dc 1c bd b7 76 ec 3d 41 5b 75 bc 48 65 b1 bc
       -0.038296472 0.115460806 -0.01497537 -0.02165474
000390 98 49 b1 3e db 2b 85 bd c0 0a b5 bd 53 ae c5 3d
       0.3462646 -0.065025054 -0.08839941 0.0965239
0003a0 04 1b 2c 3d e9 9e 7d be 17 54 9e bc 01 3e 20 bd
       0.04201795 -0.2476765 -0.019327207 -0.03912163
0003b0 13 b9 52 bd f2 d4 6a 3b 41 12 8f bc 00 50 9a 39
       -0.05144603 0.0035832492 -0.017464759 0.00029432774
0003c0 ce 7d 26 bd 2c 44 4f bd 01 4e f9 bc 14 1e 70 bd
       -0.04064732 -0.050602123 -0.030432703 -0.058622435
0003d0 27 e2 e8 bb 70 e7 66 bd 20 fd 15 be 71 27 76 bc
       -0.0071070376 -0.05637306 -0.14647341 -0.015024052
0003e0 9c f4 0f be 20 e7 96 bc f1 29 4a 3c bf 40 90 bd
       -0.14058155 -0.018420756 0.012339101 -0.07043599
0003f0 f4 8c 8f bc 2f d0 86 39 03 3b 88 be 24 e1 c2 bc
       -0.017523266 0.0002571358 -0.26607522 -0.023788996

net.2.bias f4 [128]
000000 fc af 18 3b c1 b5 aa bd 60 e7 77 3c 47 ed 43 bb
       0.0023298254 -0.08335448 0.015130848 -0.0029896067
000010 0c 5a e6 bc 12 63 9e 3e db 46 a8 bd 58 93 61 bd
       -0.02811911 0.3093496 -0.082166396 -0.05507216
000020 65 77 bf bd 0a a7 b8 3c db 04 8e bd f3 fc 49 bd
       -0.093489446 0.022540588 -0.0693452 -0.049313497
000030 55 bb d0 bd 3d 1c e1 bc 09 1e 83 3d 93 6a 8f 3b
       -0.10191981 -0.027479285 0.06402213 0.0043767183
000040 94 87 b7 bd 8a 07 69 bd e3 f7 4b bd 67 52 26 bd
       -0.08961406 -0.056891955 -0.04979695 -0.04060593
000050 89 10 2d bc ee 2e d5 bc 32 27 6d 3d 0d c0 5c 3e
       -0.010563024 -0.026023354 0.057898708 0.21557637
000060 f1 08 20 bd e3 11 67 bc 8d d1 ad bd 9c d5 5b bd
       -0.039071027 -0.014103386 -0.08487234 -0.05367051
000070 6d 5a a0 bd f0 dc 7a bd 84 88 a7 bd ba 68 80 3d
       -0.07829747 -0.06124586 -0.08180335 0.06269975
000080 1c 5d 1a bd 93 ac 1e 3c f0 8c 49 3b c5 92 a9 bc
       -0.037686452 0.0096847 0.0030754171 -0.020699868
000090 19 9a e2 bc a4 da 44 bd 98 b9 78 3d e0 10 3b bb
       -0.02766137 -0.048060074 0.06072387 -0.0028543994
0000a0 2c 4d 79 bd 1a 69 c3 bc 0b d0 8b bd cc 96 7c bd
       -0.060864612 -0.023853827 -0.068267904 -0.06166725
0000b0 fd f2 85 3e be 21 f8 3c 8c 73 ac bc af fe ae 3b
       0.26161948 0.030289527 -0.02105119 0.0053404192
0000c0 f5 55 1b bd 0e 08 fe bc 4f 93 b3 bc 01 51 74 3e
       -0.037923772 -0.0310097 -0.021920828 0.23859026
0000d0 16 40 86 bd bd 70 07 bd bc ea 20 bc bf f4 95 3b
       -0.06555192 -0.0330665 -0.00982159 0.004576295
0000e0 81 e3 58 3d 8d 7a 63 3e 91 63 81 3b 30 bf 73 3a
       0.05295134 0.22214718 0.003948637 0.00092982035
0000f0 af 80 57 bd e6 0b e8 bc 19 d0 b4 3c 31 3c 6b bd
       -0.052612957 -0.028325986 0.022071885 -0.05743045
000100 01 28 fb bc 8f a5 ad bd d8 05 4e bd 50 ec 09 3b
       -0.030658724 -0.084788434 -0.05029854 0.0021045394
000110 55 f2 d6 bc 38 9f aa 3c 41 d6 e6 bc 89 ae 38 bd
       -0.0262386 0.020827875 -0.028178336 -0.045088325
000120 5e 3e 12 3d 1b b0 9e bd 43 bc 00 bd 98 36 82 3b
       0.03570401 -0.07748433 -0.03142954 0.0039737932
000130 1f 7a f5 bc 87 bf bb bd 5d 72 4c bc 47 3e 1f bc
       -0.029965458 -0.0916739 -0.012478438 -0.009719438
000140 21 d0 37 bb 58 43 73 bd ed a1 23 bd c3 72 1f 3c
       -0.0028047638 -0.059390396 -0.039949346 0.009731951
000150 5d 25 0f bd ab ec 80 bd b3 57 5f ba be b8 aa 3c
       -0.03494774 -0.06295141 -0.0008519843 0.020840045
000160 94 2c 20 bd 8c 09 6e bd 06 2d 8c 3c 0f c3 a7 3e
       -0.039105013 -0.058114573 0.017111313 0.32766005
000170 bd c6 29 3a d3 44 bf 3e c0 5a 9e 3c 80 66 a8 3e
       0.00064764527 0.37357196 0.019330382 0.328907
000180 22 a1 f0 bd cf 87 89 3d 7d f7 86 3c 16 93 59 bd
       -0.11749484 0.067153566 0.016475433 -0.053118788
000190 20 5d fa bc 93 cf 64 3c 37 c4 f7 3b 67 c4 ae 3e
       -0.030561984 0.013965505 0.0075612324 0.34134218
0001a0 30 e8 f7 bd 57 53 d8 bc 3f 10 92 3c 0a a8 3f bd
       -0.12104833 -0.026406927 0.017830012 -0.046791114
0001b0 19 dc 53 bc f3 3b 99 bd 22 6b b8 3c 44 f2 b0 bd
       -0.012930893 -0.074821375 0.022512022 -0.086399585
0001c0 b2 10 cb bd 61 8e 03 bd 00 77 2e bd 5b 68 a8 3e
       -0.09915294 -0.032118205 -0.042593956 0.32892117
0001d0 83 e9 18 3e fd 21 b3 bc be c6 22 bd 6d de 0b bd
       0.14932828 -0.021866793 -0.039740317 -0.03414767
0001e0 a2 a2 be bd 7f 2c f0 3b 31 aa 63 3e 53 03 82 bd
       -0.093083635 0.007329523 0.22232892 -0.0634829
0001f0 44 53 8d 3b 16 e5 93 bc 6b 8a 46 bd bc 30 cf bd
       0.0043129046 -0.018053573 -0.04847185 -0.10116717

net.4.weight f4 [54, 128]
000000 2c 5f 6a bd 8e e4 a0 bd fe ae 1f bd 6a 11 67 bd
       -0.05721967 -0.07856093 -0.038985245 -0.05641309
000010 5e 8b cb 3d c7 8d 20 3e 46 e4 32 3d 00 07 d8 3c
       0.099386916 0.15679084 0.04367473 0.026370525
000020 3b 64 a7 3d 7f 66 b3 3d f8 9d dc bc 77 07 37 3d
       0.08173414 0.08759784 -0.026930794 0.044684853
000030 68 ea 60 bc 87 c4 95 3d 62 a2 5f 3e a0 e1 41 3b
       -0.013727762 0.07312875 0.21839288 0.0029583946
000040 05 97 33 bd f3 eb b9 3c 64 9c 42 bd 48 4d 92 b9
       -0.043845195 0.022695517 -0.047512427 -0.0002790487
000050 54 0e 0d bd c0 5d aa 3c e2 6c 50 3e 72 19 6a 3e
       -0.034437492 0.020796657 0.20354035 0.22861269
000060 68 cb af 3c 50 42 8d 3b 6d c9 0f bd 00 bb 0e 3a
       0.021459296 0.0043108836 -0.035104204 0.0005444735
000070 27 17 14 bd 00 26 fd b9 10 fc 09 3c 76 e5 88 3d
       -0.036154892 -0.00048284233 0.008421913 0.06684391
000080 95 64 51 bd d2 3d 17 3d 92 97 3e 3d c0 8c 3c 3c
       -0.051121313 0.03692419 0.046531267 0.011508167
000090 00 8d 0a 3b 7c 24 42 3d 2f 7e 33 be 94 42 13 3e
       0.0021141171 0.047398075 -0.17528604 0.14380866
0000a0 b8 8c 09 bc 86 5a 42 3d 10 62 fd bb a7 35 5a bd
       -0.008395366 0.04744961 -0.007732637 -0.053273823
0000b0 da 00 6b 3e 2e f7 4f bd a0 15 09 3d 12 1b 41 3d
       0.22949544 -0.05077284 0.03346789 0.047144957
0000c0 67 d3 26 bd 72 ad 95 bd 23 ba bb 3d 67 a8 00 3e
       -0.040728953 -0.07308473 0.09166362 0.1256424
0000d0 ce b5 e9 3d 81 64 fd bd 69 ac 36 3d 78 45 f4 3c
       0.114116296 -0.12372685 0.044598017 0.029818282
0000e0 13 78 e3 bc 9f da f5 3d c2 28 3e 3d dd 5c a8 bd
       -0.027767217 0.12004589 0.04642559 -0.08220837
0000f0 ed 62 a3 3d e4 24 a0 bd 77 2c 76 3c 18 fe 7a bc
       0.07977853 -0.07819536 0.01502525 -0.01531937
000100 d9 16 9d 3d 81 d2 85 3d ec 4e e6 3d 6a 8b 80 bd
       0.076703735 0.06534291 0.11245522 -0.06276591
000110 be 8a 6b bd 16 f8 26 3e ca 4e 71 3c 4d 93 93 bd
       -0.05750536 0.16305575 0.014728257 -0.0720583
000120 fc 33 17 bd 80 55 09 ba 7a 94 76 3d 28 d2 98 bd
       -0.03691481 -0.0005238876 0.060200192 -0.07461959
000130 e0 bf b0 3c 6d c5 6a 3d 44 64 d6 3d e9 c0 45 bd
       0.021575868 0.057317186 0.10468343 -0.048279677
000140 86 a9 2b 3d b7 f1 07 ba 5e c1 8a 3d 00 c7 b7 bc
       0.041909717 -0.00051858596 0.06775163 -0.022433758
000150 06 17 29 3d 1e ce 53 3d 21 99 16 3d 63 9f 65 bd
       0.041281722 0.05171024 0.03676713 -0.056060206
000160 a6 a7 b8 3d 20 1d c0 3c 30 07 de 3c 7e 75 5c 3e
       0.090163514 0.023451388 0.027103037 0.21529195
000170 0b 7f 9b 3d 3a a5 09 3e 10 cd d6 bc 23 e0 6d 3e
       0.07592591 0.13441935 -0.026220828 0.23230033
000180 84 79 b6 3d 4a cc 87 3d d6 62 16 3d 48 7e 75 bd
       0.08909896 0.06630762 0.03671535 -0.059934884
000190 2b f1 5e bd ec 4e cd 3c 40 20 41 3e 89 e4 47 3e
       -0.054429214 0.025062047 0.18859959 0.19520773
0001a0 24 d1 e9 3c 52 06 2a bd ec e5 4e bd 6a 8d 26 3d
       0.028542109 -0.041509934 -0.05051224 0.040662207
0001b0 8a 2e 4c 3c 6d b9 4f 3d 78 fa 9d bc c0 0f ce bb
       0.012462268 0.050713945 -0.019284472 -0.0062884986
0001c0 31 63 d1 bb 54 d4 2a bd b4 92 37 bd 47 bd 5d 3e
       -0.0063899984 -0.041706398 -0.04481764 0.21654235
0001d0 ff 95 1c be d8 6f 4e 3c 85 46 14 bd 12 7c 33 3d
       -0.15291594 0.012599908 -0.036200065 0.043819495
0001e0 30 c5 c9 3b b0 3d 4c bb 39 42 51 3e 27 8d 92 bd
       0.00615754 -0.0031164698 0.20435418 -0.07155829
0001f0 eb 7e f0 ba 52 be 0d bd ae 87 1c 3d d9 1e b1 3d
       -0.0018348371 -0.03460533 0.03821533 0.08648462
000200 9c 71 2a 3e c0 38 b8 ba fb 95 05 bd f0 17 49 bc
       0.16644901 -0.0014054999 -0.032613736 -0.012273774
000210 28 2f 20 bd 1f 3d 47 3e e0 25 c4 3b 93 9d 3a 3b
       -0.03910747 0.1945691 0.0059859604 0.002847527
000220 6e ae 41 3d 9e 43 02 3d dc 21 bb 3c 75 78 b8 bc
       0.04728549 0.031802766 0.022843294 -0.022518376
000230 cc 0c 1d 3c a6 61 95 bd 01 b9 69 3e 4b fb ae 3d
       0.009585571 -0.072940156 0.2282448 0.08544024
000240 47 f8 46 3c ec d9 9d bb 42 a6 13 bd 6f 9c ff bc
       0.012144155 -0.004817238 -0.036047228 -0.031202523
000250 b1 1a ae 3d 35 40 89 bd d4 a5 1e 3d b3 5d 5f 3e
       0.08501185 -0.067017 0.038732365 0.21813087
000260 e4 79 83 bc b0 81 81 bc 20 1d 02 3c a4 3a 93 bc
       -0.016049333 -0.01580891 0.007941514 -0.017972298
000270 f7 b8 d7 bc 10 03 9f 3b b4 e3 c0 3c bc 3a 1b 3c
       -0.026333315 0.00485266 0.023546077 0.009474453
000280 76 dc 6e bd 5a 30 ac bd 6b 58 9d 3d 9a a9 56 3d
       -0.058315717 -0.0840766 0.0768288 0.05240784
000290 ec 20 68 bd f4 e7 40 3c 6c b1 db bd 65 c4 a9 3c
       -0.05667202 0.011774052 -0.107272 0.020723531
0002a0 8a ea 7b 3d 56 66 6e 3d 90 60 45 bc 98 44 a2 3c
       0.06150297 0.058203064 -0.012046948 0.019808099
0002b0 e2 bc 21 3e de f7 66 3d c9 1b e9 3d e8 22 4b bd
       0.1579471 0.05638873 0.11382253 -0.049593836
0002c0 8e f8 41 3d 34 b2 05 3d 14 d4 06 3d c9 03 77 3a
       0.04735618 0.03264065 0.032917097 0.0009422866
0002d0 82 9c 49 bd 4c 0f 83 bd 60 c6 7b 3c 8d 00 99 bd
       -0.049221523 -0.06399402 0.0153671205 -0.07470808
0002e0 da 3b d1 3c 20 5f 4c 3e 0f a6 96 3d b9 59 bf 3c
       0.025541235 0.19958162 0.07355892 0.023358213
0002f0 00 7c 8a b9 ff 82 32 bd a9 a9 ab 3d 66 f9 1a 3d
       -0.00026413798 -0.04358196 0.083819695 0.0378355
000300 81 7f af bd 28 f5 d8 bc b1 fb 90 3e 30 fd e4 3c
       -0.08569241 -0.026484087 0.28317025 0.02795276
000310 a5 d0 88 bd 4a 5a b0 3d 4a 29 19 3d 88 a9 9c 3c
       -0.06680421 0.08610971 0.037392892 0.019123808
000320 78 3f 4d bc 58 1d 4c bd 50 30 83 3d 71 45 84 bd
       -0.012527339 -0.049832672 0.06405699 -0.064585574
000330 2e 82 92 bc 4b c0 70 3c 04 b4 84 bc f7 e2 9c 3d
       -0.01788434 0.014694284 -0.01619912 0.076604776
000340 c2 d1 43 3d 91 e1 04 3d 3a 16 22 3c c7 28 6d bb
       0.047807463 0.03244168 0.009892995 -0.0036187635
000350 00 58 36 38 2c 43 ae bd c4 a6 0f 3d 9b 44 63 bd
       4.3474138e-05 -0.08508906 0.03507115 -0.05548535
000360 e0 9e 69 bb 80 82 87 bc b4 50 c4 bd cf e0 76 3e
       -0.0035647675 -0.01654172 -0.095857054 0.24109195
000370 60 df f0 3c 5b ae 8a 3e 98 0a 9f bc b2 9b 21 3e
       0.029403389 0.27086148 -0.019414231 0.1578205
000380 9a a2 23 3e fd 24 32 3e f6 71 7d 3d 6e c4 e2 bc
       0.15979996 0.17396922 0.06187626 -0.027681556
000390 3f cb 1e 3d ee 3a 85 bd 5d 83 8d bd 94 ee 40 3e
       0.03876805 -0.065053806 -0.06909821 0.1884101
0003a0 28 64 39 bc 60 f3 59 bb 69 60 88 3d 6c b2 a5 bc
       -0.011315383 -0.0033256635 0.06659014 -0.02022668
0003b0 bd d3 54 bd 38 ec 18 3b 1f e0 a5 bd 5f c3 16 3c
       -0.05195974 0.0023334157 -0.08099388 0.009201854
0003c0 8a 3a c6 bd 92 19 e8 bc c4 ac 15 3d 74 df 58 3e
       -0.09679134 -0.028332505 0.036541715 0.2117899
0003d0 24 85 93 bc 6d 61 ad 3d 10 1b e6 bb 00 61 1c bb
       -0.018007822 0.08465848 -0.007022269 -0.0023861527
0003e0 ba ea 93 bd 46 81 15 3d 48 7e 0a 3e 4c 57 0c be
       -0.07222505 0.036500238 0.13524735 -0.13705176
0003f0 3e 3f 71 3d 1a 38 0a 3d ee 36 3c bd 10 fd aa bc
       0.058898203 0.03374491 -0.045950823 -0.020872623

net.4.bias f4 [54]
000000 73 bc 34 3e 03 cc c0 3e cb 8a 5a 3e ed 85 4d 3e
       0.17650013 0.3765565 0.21342008 0.2007062
000010 d9 fd a8 3e f8 17 8b 3e 08 d5 59 3e 91 07 66 3e
       0.3300617 0.27166724 0.21272671 0.22463824
000020 1b 40 3b 3e 4b 2d 80 3e ac fc 80 3e d6 6a 4a 3e
       0.18286173 0.25034556 0.25192773 0.19767317
000030 72 f6 8c 3e 8c 79 d3 3d 3b 10 c6 3e b6 b2 b6 3e
       0.27531773 0.103259176 0.38684258 0.3568322
000040 c6 02 7e 3e 67 4e 93 bc 08 0e 8d 3e dd 3c c1 3e
       0.24805745 -0.017981721 0.27549767 0.37741747
000050 52 16 38 3e cc 41 db 3e 71 34 48 3e fb bc 56 3e
       0.17977265 0.42823637 0.19551255 0.20970528
000060 2e 6c cb 3e fb 24 91 3e 5e e4 2e 3e 05 47 87 3e
       0.39730972 0.28348526 0.17079303 0.2642137
000070 8d e5 88 3e f7 eb 73 3e 24 f1 a3 3e ef e7 9e 3e
       0.26737633 0.23820482 0.32019913 0.31036326
000080 43 ac 0a 3e d1 3e 9f 3e 27 c6 c4 3e 3a ef 88 3e
       0.13542275 0.31102613 0.38432428 0.26745015
000090 da ef 74 3e 64 a0 7a 3e c7 0f 6b 3d 72 81 77 3e
       0.23919621 0.24475247 0.057388093 0.24170473
0000a0 75 cb 7c 3e 20 4b 8c 3e 14 24 25 3e 13 40 5a 3e
       0.24686988 0.27401066 0.16127044 0.21313505
0000b0 fb b7 96 3e b1 38 e1 3e da 9c c9 3e 79 10 02 3e
       0.2943724 0.43988565 0.3937748 0.12701596
0000c0 01 2a ae 3e 74 38 db 3e 37 83 ea 3e a9 fd 85 3e
       0.3401642 0.42816508 0.45803234 0.2617009
0000d0 17 4c 33 3e 27 05 32 3e
       0.17509495 0.17384778
