bot_brain_latest.pth (torch, 181730 bytes, 6 tensors)

net.0.weight f4 [256, 18]
0.0063946694 0.11718364 -0.018146833 -0.11494229 -0.28188154 0.10656139 -0.26893196 -0.07856784
-0.10806807 0.036600586 -0.10486775 0.0051932167 0.06335111 -0.08364758 -0.08438103 -0.24879095
-0.08398105 0.31825396 -0.19672649 -0.15773217 0.23020427 -0.18447074 0.37025622 -0.123679206
0.0047868257 0.061573334 0.12742937 -0.26980963 -0.06834099 0.285635 0.22729541 -0.21441807
0.015331164 -0.063260384 0.13994493 -0.12134157 0.056181587 0.18623994 0.06797043 0.086939685
-0.036820244 0.23385118 0.21034412 0.0032025918 -0.014099979 0.08014276 0.009939634 -0.11931461
0.06481017 0.07857798 -0.16169116 -0.14911261 -0.13756156 0.29067492 -0.31216848 0.15474713
0.015495861 -0.025530951 -0.045004472 0.13711408 -0.11385543 0.18071839 -0.14466195 0.008781687
0.11755057 0.15547284 -0.027672023 -0.03865473 -0.14345804 0.13975142 -0.08514647 -0.08647099
0.15456972 -0.14634243 0.033316694 0.075889304 -0.18133663 0.12786058 0.10828783 0.31295505
-0.19275391 0.035634603 0.096983455 -0.17702006 -0.14625283 -0.07554218 -0.061047822 -0.24145795
0.26829985 0.2544497 0.033353005 0.058575843 0.19737509 -0.044678614 -0.26668558 0.16794541
-0.08845641 0.07265583 0.05633016 0.24845569 -0.031861085 -0.011388121 -0.10918714 -0.07364339
-0.15493648 -0.009666219 0.24772206 0.16820921 0.120648414 0.29314628 -0.07793725 0.07106141
0.08641949 0.16529141 0.22110759 0.06533839 -0.18835847 0.023815408 0.1409214 0.27670234
-0.1958344 0.0923986 -0.07950817 0.16296715 0.31560782 0.14936732 0.0052497806 -0.12186075
0.21072717 -0.15366873 0.13149242 0.08354139 0.010367643 0.20953888 -0.06156467 -0.3511652
0.22048391 0.23442627 0.045974955 0.037806675 0.19224833 0.2802807 -0.12469927 -0.099893756
0.043419167 -0.054152224 -0.047871303 -0.06436559 -0.19815622 0.18396494 -0.09545147 -0.19947122
0.107665 0.1842738 -0.07836885 0.07665402 0.207561 0.20679064 -0.07890682 -0.21702024
0.1608489 0.06387267 -0.07156037 0.118953094 0.12200468 -0.09847468 0.13161866 -0.052154094
0.10522575 0.30240625 -0.058374923 -0.08137212 0.07888507 0.20309265 0.011994004 -0.21903159
-0.14180142 0.034091696 -0.065255344 0.28528902 0.09293007 -0.10759771 -0.16793612 0.12023511
-0.17126043 0.22810802 -0.07597247 0.0739442 0.22978145 0.21870138 -0.08817937 0.15667562
-0.018744081 -0.21448734 0.06327744 0.1773578 -0.1364824 0.27974367 -0.25080237 0.2066087
0.12515157 -0.35571593 0.069607124 0.39801234 0.044792656 -0.20951776 -0.18034379 -0.08921887
-0.10239351 0.123712264 0.04707043 0.07405992 0.13088076 -0.12524582 -0.006018064 -0.1659171
0.12632267 -0.07995199 0.1197228 0.148515 -0.06989434 0.12376787 0.05676253 -0.14667584
-0.058265746 -0.14352168 -0.09751053 0.15874155 -0.12952895 -0.16257961 -0.12683728 -0.1301897
-0.027752161 -0.1563772 -0.09488778 -0.19936214 0.16062763 -0.33946717 0.28498048 0.16726632
0.053736404 0.07402881 0.19636497 -0.4978473 -0.095637366 0.053197823 -0.003872618 -0.10521865
-0.2078852 0.07073273 0.13337836 0.027182948 0.20482923 -0.22113457 0.0880854 -0.109121755
00000000: 608a d13b fafd ef3d aba8 94bc dd66 ebbd
00000010: c752 90be dc3c da3d 73b1 89be 2de8 a0bd
00000020: cb52 ddbd 7fea 153d e7c4 d6bd dc2b aa3b
00000030: 3abe 813d 6c4f abbd f6cf acbd 0ec3 7ebe
00000040: 42fe abbd 2ff2 a23e ab72 49be 8b84 21be
00000050: abba 6b3e e6e5 3cbe 3992 bd3e 864b fdbd
00000060: ceda 9c3b 5234 7c3d d87c 023e 7d24 8abe
00000070: 5cf6 8bbd c03e 923e 21c0 683e 6990 5bbe
00000080: 902f 7b3c a98e 81bd b94d 0f3e ee81 f8bd
00000090: aa1e 663d afb5 3e3e 1534 8b3d 6f0d b23d
000000a0: d3d0 16bd af76 6f3e 7364 573e 93e2 513b
000000b0: 9903 67bc e321 a43d d9d9 223c 385b f4bd
000000c0: 32bb 843d 7eed a03d 5e92 25be fab0 18be
000000d0: f0dc 0cbe 58d3 943e 8cd4 9fbe 0876 1e3e
000000e0: 5ae2 7d3c 4926 d1bc 9c56 38bd a267 0c3e
000000f0: 092d e9bd 3e0e 393e 4322 14be 11e1 0f3c
00000100: 5abe f03d 4634 1f3e 70b0 e2bc 6c54 1ebd
00000110: aae6 12be ff1a 0f3e 4661 aebd b417 b1bd
00000120: 8647 1e3e cada 15be 1677 083d da6b 9b3d
00000130: 4fb0 39be e2ed 023e 03c6 dd3d a53b a03e
00000140: 4861 45be 97f5 113d 439f c63d bf44 35be
00000150: 4dc3 15be dcb5 9abd 480d 7abd c140 77be
00000160: 995e 893e 3b47 823e 299d 083d 39ed 6f3d
00000170: b21c 4a3e ec00 37bd 038b 88be e2f9 2b3e
00000180: a228 b5bd 94cc 943d 74ba 663d 2b6b 7e3e
00000190: c580 02bd 3e95 3abc 829d dfbd 58d2 96bd
000001a0: aba7 1ebe 105f 1ebc daaa 7d3e 093f 2c3e
000001b0: 8416 f73d 4517 963e 919d 9fbd a588 913d
000001c0: b4fc b03d 2742 293e 076a 623e 22d0 853d
000001d0: 0be1 40be 8818 c33c b34d 103e eeab 8d3e
000001e0: d088 48be 7a3b bd3d 2ed5 a2bd dce0 263e
000001f0: 5997 a13e bff3 183e 5a06 ac3b 2192 f9bd
00000200: ddc8 573e 565b 1dbe f3a5 063e c017 ab3d
00000210: 0cdd 293c 5c91 563e 3c2b 7cbd edcb b3be
00000220: 89c6 613e 710d 703e 3c50 3c3d 2cdb 1a3d
00000230: bfdc 443e f480 8f3e 5562 ffbd 1995 ccbd
00000240: 4cd8 313d b9ce 5dbd b314 44bd 1bd2 83bd
00000250: 77e9 4abe 4e61 3c3e 0f7c c3bd 2f42 4cbe
00000260: 787f dc3d 45b2 3c3e d97f a0bd c8fc 9c3d
00000270: df8a 543e edc0 533e e699 a1bd 8e3a 5ebe
00000280: 93b5 243e adcf 823d 3e8e 92bd ae9d f33d
00000290: 97dd f93d 18ad c9bd 0bc7 063e 889f 55bd
000002a0: 9980 d73d fed4 9a3e 8b1a 6fbd 6da6 a6bd
000002b0: 7f8e a13d 85f7 4f3e 8082 443c d149 60be
000002c0: 6434 11be bca3 0b3d 98a4 85bd 6711 923e
000002d0: 1f52 be3d 305c dcbd 72f7 2bbe d33d f63d
000002e0: e55e 2fbe 2695 693e 7497 9bbd 0f70 973d
000002f0: d44b 6b3e 41f3 5f3e 6397 b4bd 936f 203e
00000300: 308d 99bc 92a2 5bbe 9a97 813d 489d 353e
00000310: 0bc2 0bbe 903a 8f3e 2b69 80be 3b91 533e
00000320: bc27 003e 6620 b6be 2e8e 8e3d 46c8 cb3e
00000330: 8178 373d d38b 56be 0bac 38be 62b8 b6bd
00000340: b0b3 d1bd db5c fd3d eccc 403d baac 973d
00000350: 9b05 063e 7140 00be 2e33 c5bb 2ce6 29be
00000360: bb5a 013e debd a3bd 3a31 f53d 5114 183e
00000370: c424 8fbd 027a fd3d d47f 683d 3132 16be
00000380: 10a8 6ebd 59f7 12be 9ab3 c7bd 258d 223e
00000390: 3da3 04be 457b 26be a2e1 01be 7350 05be
000003a0: 8058 e3bc 5821 20be 8654 c2bd 9725 4cbe
000003b0: 927b 243e a4ce adbe f6e8 913e dd47 2b3e
000003c0: b41a 5c3d 6b9c 973d e613 493e d7e5 febe
000003d0: 86dd c3bd f6e5 593d c0cb 7dbb e07c d7bd
000003e0: dcdf 54be 52dc 903d 5694 083e c6ae de3c
000003f0: c1be 513e 1a71 62be 1e66 b43d 3a7b dfbd

net.0.bias f4 [256]
0.2893871 0.004920376 0.30787486 -0.15862276 0.04378925 0.15541062 0.13659082 -0.22745357
-0.22195154 0.049967334 -0.111999184 0.1919261 -0.12642524 -0.2082413 -0.081088096 0.21229847
0.2629467 -0.06287372 0.3095827 -0.15061478 -0.05076622 0.057393067 0.015616404 0.020209828
-0.21393478 0.21444023 -0.115371786 0.12867545 0.010675903 -0.02383696 0.09670568 -0.10568376
-0.07219442 0.07572512 0.06839479 0.25325277 0.027966753 0.092396334 0.010013636 0.25729033
-0.11168523 0.23590049 0.31244168 0.28657404 0.109351516 0.12070693 0.19004482 0.124183975
-0.13939662 0.29181495 0.10475206 0.21182317 -0.09300782 -0.05973013 -0.15686275 -0.05331278
0.2519492 -0.055368204 0.16721143 0.27587625 0.2167215 0.23420982 -0.1466222 0.097463444
0.010640237 0.31844974 -0.07564002 0.09818566 -0.061941367 0.09363065 0.110645026 -0.0062188525
0.15822534 0.14148085 0.19130631 0.3186152 0.0381455 -0.07674171 0.2048053 0.11929878
0.16046196 -0.19054125 0.103225514 0.08439708 0.25806585 -0.14454183 0.08958529 -0.19722334
0.039030585 0.16530317 -0.22587089 -0.13079084 0.28465626 0.18091252 -0.081058994 0.2322642
-0.11360231 0.26658317 0.011866381 0.12985526 -0.028274553 0.21959603 0.099864475 0.07008926
0.25890106 -0.15821381 0.2764411 -0.11212442 0.12863953 -0.038927697 0.27590182 0.087749235
-0.11922569 -0.066767216 -0.12825559 0.29226217 -0.19353613 0.113936305 0.13636664 -0.009537914
0.25741655 0.111374095 0.113017514 0.18565121 -0.17007172 0.1306875 0.10583169 0.21130143
0.134731 -0.16885498 0.29703745 0.029612621 0.073454656 0.14086322 0.05332733 -0.22001763
0.010029666 0.06847993 0.09101584 -0.055761896 -0.13236718 0.07045494 0.026176728 0.19111955
0.1806014 0.2932322 0.23547675 -0.013019569 0.20999826 -0.15653862 -0.07463387 0.24898748
0.18337929 -0.119895294 0.11526726 0.12453302 0.2911409 -0.11928251 0.18150224 0.13286853
-0.13945866 -0.12710048 0.18110603 0.19891134 0.11573387 0.18299687 0.034372255 0.1743587
-0.16012415 -0.14038631 -0.18298408 -0.14330165 -0.06514186 0.20740958 0.1560904 0.03263013
-0.09958233 0.19827516 0.15473479 0.23308407 -0.027756475 0.28768688 0.06446084 0.27248362
-0.10655489 0.22806798 0.22380856 -0.012611445 -0.15777183 -0.14248309 0.019551702 0.32334247
0.26606593 0.21718892 0.28904402 -0.052395716 0.018034765 0.012160236 -0.17041272 -0.022752155
0.18264833 -0.2294203 -0.082965 -0.06894087 0.07068319 0.25501877 0.113131694 0.161438
0.22673967 -0.121062726 0.07708152 0.1830527 -0.18756053 0.010990353 0.18631448 0.055710506
0.26531327 -0.13896441 -0.0007278787 0.2721119 0.059941627 -0.13631454 0.17539354 -0.1743943
0.15187615 -0.051857844 0.24137114 0.20963368 -0.10123541 -0.06033529 -0.12818362 0.063885815
-0.13611153 0.17236048 -0.033104807 -0.039438352 -0.088843204 0.09341729 -0.18039785 0.05261971
-0.030974466 0.2183557 0.053424712 0.206198 -0.09378601 0.10933646 0.056767106 -0.17602196
0.1995566 0.07422306 0.0022260994 -0.18125151 -0.066632375 0.04706551 0.026631098 0.19399115
00000000: 8c2a 943e 1b3b a13b c6a1 9d3e 016e 22be
00000010: 5b5c 333d f623 1f3e 77de 0b3e 97e9 68be
00000020: 4447 63be 8caa 4c3d d45f e5bd 4788 443e
00000030: 9e75 01be 353d 55be 8411 a6bd c564 593e
00000040: f3a0 863e f0c3 80bd a081 9e3e c33a 1abe
00000050: 3df0 4fbd fe14 6b3d f2db 7f3c 158f a53c
00000060: b811 5bbe 3896 5b3e 0b48 ecbd 7fc3 033e
00000070: fce9 2e3c ba45 c3bc a10d c63d ba70 d8bd
00000080: abda 93bd c615 9b3d 9112 8c3d 59aa 813e
00000090: 881a e53c 4a3a bd3d 3c10 243c 8fbb 833e
000000a0: 3abb e4bd e68f 713e 5bf8 9f3e d5b9 923e
000000b0: b0f3 df3d 3235 f73d 1c9b 423e 2b54 fe3d
000000c0: fdbd 0ebe c568 953e 3f88 d63d 2ce8 583e
000000d0: e27a bebd 95a7 74bd a1a0 20be 805e 5abd
000000e0: 7cff 803e c5c9 62bd 7939 2b3e a73f 8d3e
000000f0: 3eec 5d3e b3d4 6f3e 2124 16be ea9a c73d
00000100: 6354 2e3c d80b a33e 28e9 9abd 9015 c93d
00000110: 3bb6 7dbd 6dc1 bf3d dc99 e23d 84c7 cbbb
00000120: d305 223e 5be0 103e cde5 433e 8821 a33e
00000130: 753e 1c3d c22a 9dbd 7bb8 513e eb52 f43d
00000140: 2450 243e 3f1d 43be e667 d33d 60d8 ac3d
00000150: 3521 843e c602 14be 7e78 b73d eaf4 49be
00000160: 89de 1f3d 3c45 293e b34a 67be 09ee 05be
00000170: 77be 913e 2241 393e 4202 a6bd abd6 6d3e
00000180: 54a8 e8bd 977d 883e 366b 423c c7f8 043e
00000190: 09a0 e7bc c8dd 603e bf85 cc3d f58a 8f3d
000001a0: ae8e 843e cd02 22be b089 8d3e 7da1 e5bd
000001b0: 15ba 033e a672 1fbd 0143 8d3e dfb5 b33d
000001c0: 992c f4bd 40bd 88bd 6f55 03be 63a3 953e
000001d0: 562e 46be 7057 e93d b2a3 0b3e e944 1cbc
000001e0: 1acc 833e 1a18 e43d ba75 e73d 5a1b 3e3e
000001f0: 4827 2ebe f2d2 053e 49be d83d 675f 583e
00000200: ecf6 093e 52e8 2cbe 4b15 983e 2b96 f23c
00000210: 656f 963d 733e 103e c26d 5a3d 4d4c 61be
00000220: 7853 243c 353f 8c3d 8366 ba3d 9666 64bd
00000230: 438b 07be ae4a 903d 9470 d63c d8b4 433e
00000240: 93ef 383e 8822 963e d120 713e 0850 55bc
00000250: c909 573e a94b 20be a4d9 98bd 93f6 7e3e
00000260: c8c7 3b3e aa8b f5bd 3e11 ec3d 2b0b ff3d
00000270: 6c10 953e 634a f4bd b9db 393e b00e 083e
00000280: 40ce 0ebe a126 02be dc73 393e 6aaf 4b3e
00000290: e105 ed3d 8863 3b3e ecc9 0c3d 168b 323e
000002a0: 96f7 23be 6ec1 0fbe 2e60 3bbe abbd 12be
000002b0: 1869 85bd 2d63 543e 29d6 1f3e 2ca7 053d
000002c0: d2f1 cbbd a508 4b3e cc72 1e3e 97ad 6e3e
000002d0: 8c61 e3bc b24b 933e 0b04 843d f982 8b3e
000002e0: 7339 dabd a78a 693e 122e 653e 3ca0 4ebc
000002f0: f08e 21be 16e7 11be e42a a03c 258d a53e
00000300: cb39 883e c666 5e3e 94fd 933e e49c 56bd
00000310: a5bd 933c ba3b 473c ac80 2ebe ba62 babc
00000320: 2a08 3b3e 28ed 6abe 8ee9 a9bd df30 8dbd
00000330: 59c2 903d d291 823e 97b1 e73d 0150 253e
00000340: 722e 683e bcef f7bd eadc 9d3d 2b72 3b3e
00000350: de0f 40be e210 343c 39c9 3e3e b330 643d
00000360: 24d7 873e b04c 0ebe 1dcf 3eba 4052 8b3e
00000370: 5a85 753d 0a96 0bbe 5d9a 333e 6b94 32be
00000380: 6c85 1b3e e468 54bd ff29 773e 36aa 563e
00000390: 8354 cfbd 2322 77bd 9142 03be 91d6 823d
000003a0: d260 0bbe 447f 303e e898 07bd 1c8a 21bd
000003b0: 6df3 b5bd 9051 bf3d 37ba 38be c487 573d
000003c0: 2abe fdbc a398 5f3e dfd3 5a3d 9225 533e
000003d0: e112 c0bd cbeb df3d a084 683d 1a3f 34be
000003e0: 9158 4c3e 4202 983d c0e3 113b ff99 39be
000003f0: 8e76 88bd c4c7 403d 7629 da3c 9ea5 463e

net.2.weight f4 [128, 256]
0.055066634 -0.15066124 0.10858464 -0.071555115 0.14531852 0.021682678 0.05655268 -0.14779834
-0.03728583 0.099959776 -0.0694149 -0.20283006 0.0010966435 -0.1740364 -0.05880318 0.15289739
0.097123325 -0.035936076 0.09371159 -0.21012276 -0.15322389 0.05036556 -0.056657128 0.03851102
-0.17557572 0.11376107 0.13879855 0.10424558 0.15062933 0.03664796 0.09131302 -0.11878874
0.13677616 0.17449206 0.12463226 0.08676257 0.04947959 -0.005934663 -0.11824188 -0.10869121
0.028106008 0.09211967 0.021187607 -0.0787217 -0.1484922 0.115339525 0.123212785 0.13065414
-0.15465489 0.12702754 -0.07193516 0.11807963 -0.20148127 0.045129962 -0.011633081 0.05413012
0.16582038 0.113183185 0.03039238 0.11672333 0.062554024 0.032310218 0.06392144 0.05751805
-0.27884984 0.09242631 0.095855705 0.14068806 0.14532009 -0.19555877 0.1361591 0.04567941
0.039896913 -0.17662494 0.041801453 0.052450962 0.0952132 0.040230267 -0.19476418 0.05556356
0.06391671 -0.15448903 0.088901706 0.11066677 0.0819789 0.037705272 -0.13857207 -4.80174e-05
-0.09734146 0.110430285 -0.16059119 0.085983634 0.06738666 0.14069106 0.0738506 0.06683058
-0.042890728 0.040767558 -0.17653437 0.08978163 -0.07639561 0.11189762 0.106768556 0.03726635
0.054089442 -0.18245652 -0.1850089 0.09024357 -0.12552889 -0.2763315 0.08121089 0.020442247
0.036106024 0.028998442 -0.101213254 0.11593326 -0.02296792 0.05119174 -0.1708987 0.023373948
0.11954479 0.05720378 0.049883842 0.034067385 0.033016704 0.13515806 0.11223776 0.0061217984
0.092374615 -0.12037647 -0.22392516 0.10712295 -0.27223283 0.060575083 0.024876969 -0.026788296
0.09029878 0.07929431 0.09328989 0.038749542 -0.255454 0.091608696 -0.049737632 0.07971016
0.09026522 0.1111098 0.13035694 -0.15592436 0.02195154 -0.11908362 -0.12683395 0.042008676
0.023292655 0.1165756 0.11554207 0.04134112 0.057652842 0.0592596 -0.16254194 0.0034400353
-0.12967485 0.03995439 0.049307197 0.1264199 0.14119229 0.044046238 -0.20691459 0.07088562
-0.049397696 0.021032264 0.03047654 0.11261311 -0.115061626 -0.12106492 -0.09222008 0.023342945
-0.0030076206 -0.14247501 -0.14609624 0.09911959 -0.14801814 0.09531815 -0.09116464 0.086675376
-0.088682294 0.11653048 -0.20453148 0.04290083 -0.24949901 0.03875887 -0.09697853 -0.15147805
-0.17688598 -0.092669845 -0.0019933106 0.10477793 0.11939965 0.08164686 -0.16075073 0.123868495
0.08278979 0.014056945 -0.0059658512 -0.16324763 -0.28392026 0.047638167 -0.058443677 -0.18777446
0.12910609 -0.116968155 -0.00046688115 0.019884361 -0.034127116 0.1141321 -0.012461255 -0.13358995
0.121926375 0.10994628 -0.077274896 0.13833168 -0.13304397 -0.20382865 0.04469868 -0.29696682
0.10590291 0.12881483 0.11148949 -0.10118557 0.124640055 0.09041857 0.08973713 -0.16939288
-0.20233029 0.1498877 0.095733844 0.10468771 0.0071161636 0.05184565 0.09592182 0.02935531
0.17197001 -0.103852116 -0.09958409 -0.15748277 0.09750086 0.100553535 0.04908841 -0.15002255
0.114038736 0.06458713 0.07407523 0.0016075075 -0.025004506 0.13451968 -0.049719624 0.013634433
00000000: 8d8d 613d f146 1abe a061 de3d 7d8b 92bd
00000010: 61ce 143e df9f b13c c8a3 673d 7358 17be
00000020: 07b9 18bd b6b7 cc3d 6629 8ebd afb2 4fbe
00000030: 40bd 8f3a 9936 32be 9adb 70bd 2291 1c3e
00000040: 98e8 c63d b531 13bd ddeb bf3d 6c2a 57be
00000050: b9e6 1cbe 1e4c 4e3d 4e11 68bd bbbd 1d3d
00000060: 1fca 33be 90fb e83d 3521 0e3e b57e d53d
00000070: 933e 1a3e 2c1c 163d 5202 bb3d 8347 f3bd
00000080: 0d0f 0c3e 0cae 323e 333f ff3d 93b0 b13d
00000090: 1cab 4a3d 9077 c2bb cc28 f2bd 7f99 debd
000000a0: 923e e63c 3da9 bc3d a291 ad3c d838 a1bd
000000b0: 570e 18be 2137 ec3d fc56 fc3d 33ca 053e
000000c0: da5d 1ebe 8213 023e be52 93bd bcd3 f13d
000000d0: 1b51 4ebe 32da 383d ae98 3ebc 8bb7 5d3d
000000e0: d1cc 293e 96cc e73d 71f9 f83c a40c ef3d
000000f0: 531c 803d b857 043d 3ee9 823d 0c98 6b3d
00000100: 68c5 8ebe 014a bd3d ff4f c43d 8810 103e
00000110: cace 143e 8f40 48be 4b6d 0b3e 551a 3b3d
00000120: f26a 233d 2bdd 34be 0038 2b3d d2d6 563d
00000130: 23ff c23d 7ec8 243d 4370 47be 9e96 633d
00000140: c4e6 823d 5f32 1ebe 1912 b63d 42a5 e23d
00000150: 8ee4 a73d d870 1a3d d6e5 0dbe 4a66 49b8
00000160: f65a c7bd 4629 e23d 0472 24be 3018 b03d
00000170: 0402 8a3d 5111 103e fc3e 973d 79de 883d
00000180: 30ae 2fbd e2fb 263d 6dc5 34be 6edf b73d
00000190: 4d75 9cbd 942a e53d 79a9 da3d 9aa4 183d
000001a0: e48c 5d3d e2d5 3abe f972 3dbe 9fd1 b83d
000001b0: a58a 00be 537b 8dbe e551 a63d 8076 a73c
000001c0: e9e3 133d 248e ed3c e548 cfbd 6b6e ed3d
000001d0: 3827 bcbc 6eae 513d 1200 2fbe b97a bf3c
000001e0: e6d3 f43d 834e 6a3d 0053 4c3d 3e8a 0b3d
000001f0: 863c 073d e066 0a3e e9dc e53d 5e99 c83b
00000200: e72e bd3d f087 f6bd a34c 65be 4763 db3d
00000210: 1a62 8bbe 941d 783d c9ca cb3c 2173 dbbc
00000220: 91ee b83d 0e65 a23d c50e bf3d d7b7 1e3d
00000230: deca 82be 579d bb3d b0b9 4bbd 153f a33d
00000240: f9dc b83d 898d e33d 4a7c 053e a3aa 1fbe
00000250: b7d3 b33c 1de2 f3bd c2e0 01be 4a11 2c3d
00000260: 3dd0 be3c 30bf ee3d 52a1 ec3d 4e55 293d
00000270: 6325 6c3d 32ba 723d 6571 26be 3772 613b
00000280: 7cc9 04be 37a7 233d 58f6 493d 3874 013e
00000290: b694 103e d469 343d 6be1 53be 7b2c 913d
000002a0: 3d55 4abd db4b ac3c f0a9 f93c b4a1 e63d
000002b0: 6ea5 ebbd e3f0 f7bd e2dd bcbd b439 bf3c
000002c0: 801b 45bb f8e4 11be 419a 15be 36ff ca3d
000002d0: 1192 17be 2a36 c33d 87b4 babd dc82 b13d
000002e0: 109f b5bd 88a7 ee3d b370 51be c8b8 2f3d
000002f0: ab7c 7fbe 9fc1 1e3d ae9c c6bd 101d 1bbe
00000300: 9921 35be b0c9 bdbd 34a2 02bb d095 d63d
00000310: ce87 f43d 7836 a73d d79b 24be c4ae fd3d
00000320: b28d a93d 1a4f 663c 307d c3bb 632a 27be
00000330: ff5d 91be 3d20 433d a362 6fbd f347 40be
00000340: 6334 043e 008d efbd bac7 f4b9 87e4 a23c
00000350: e0c8 0bbd 17be e93d 4b2a 4cbc cecb 08be
00000360: 89b4 f93d 842b e13d 4d42 9ebd d2a6 0d3e
00000370: ae3c 08be 75b8 50be f715 373d 090c 98be
00000380: a0e3 d83d 09e8 033e 9a54 e43d 613a cfbd
00000390: 4943 ff3d 5f2d b93d 1ac8 b73d 5475 2dbe
000003a0: ac2f 4fbe 297c 193e 1b10 c43d 8366 d63d
000003b0: b52e e93b 1b5c 543d a972 c43d 8c7a f03c
000003c0: e818 303e 6bb0 d4bd bef2 cbbd 2a43 21be
000003d0: 88ae c73d 03ef cd3d ee10 493d 839f 19be
000003e0: 248d e93d 4246 843d c1b4 973d 00b3 d23a
000003f0: 40d6 ccbc 87bf 093e cea6 4bbd f562 5f3c

net.2.bias f4 [128]
0.043080237 0.021002226 0.055981006 -0.047170293 0.003873454 -0.056058478 0.029215554 0.050268468
0.022522286 0.04266192 0.002634329 -0.0073970035 -0.017283011 -0.059731424 0.10368198 0.07086656
-0.028489891 0.07541387 0.012898735 0.03493822 -0.035591375 0.04258905 0.01287387 -0.05048713
0.043350395 0.0321563 0.063625075 0.0049859965 0.048811354 0.05788791 0.04013698 -0.009161077
0.14911601 -0.04289118 0.044366926 0.022872282 0.035600614 -0.049208224 0.021742808 0.03521122
-0.022058276 0.00596702 0.04091635 0.023331681 0.048792604 0.037384175 0.07442355 0.023794359
-0.054338105 -0.0565003 0.0030142223 0.08927199 0.055032525 0.015701646 0.03900043 -0.056913573
-0.04069067 -0.07352527 0.0092678275 0.0077342163 0.11752046 0.14360349 0.07067237 -0.0062980927
-0.030262193 -0.035327606 0.033103626 0.014854793 -0.011454411 0.044095915 0.024605487 -0.011858032
-0.0008078804 0.14402483 -0.052927382 0.01564364 -0.015555023 0.037229594 0.14060816 -0.07567031
0.10079126 -0.045750253 -0.06444127 0.094967216 -0.020229705 -0.05174073 0.04470527 0.051921833
0.061505076 0.0376487 0.03683494 0.009334437 -0.051746484 -0.058981765 -0.0006004628 0.15299845
-0.0017995983 0.0889704 -0.05010501 0.057757497 -0.056051467 -0.02238984 0.018098451 0.0034694127
-0.027094362 -0.002745233 0.060278866 0.00027992402 0.09355517 0.10580174 0.11899242 -0.056007527
0.033197567 -0.03222155 0.020987054 0.03628473 -0.049237017 0.013004705 -0.06461846 0.031124825
0.01269358 0.0044441256 -0.0034183331 -0.029469255 0.055704154 -0.032643232 0.09172138 0.05043213
00000000: e774 303d dc0c ac3c 574c 653d a335 41bd
00000010: c6d9 7d3b 939d 65bd 7555 ef3c 4fe6 4d3d
00000020: a880 b83c 44be 2e3d b5a4 2c3b 9062 f2bb
00000030: 1a95 8dbc f0a8 74bd 3857 d43d 7d22 913d
00000040: a263 e9bc 9672 9a3d 3755 533c 611b 0f3d
00000050: 43c8 11bd db71 2e3d edec 523c 98cb 4ebd
00000060: 2f90 313d 53b6 033d dd4d 823d 9261 a33b
00000070: 6aee 473d e01b 6d3d ad66 243d 5818 16bc
00000080: deb1 183e a9ae 2fbd 18ba 353d a75e bb3c
00000090: f3d1 113d 908e 49bd f91d b23c a439 103d
000000a0: 8fb3 b4bc fe86 c33b e797 273d 1522 bf3c
000000b0: c1da 473d 2620 193d 606b 983d 63ec c23c
000000c0: a291 5ebd dc6c 67bd 428a 453b 3cd4 b63d
000000d0: c969 613d bda0 803c eabe 1f3d 351e 69bd
000000e0: 43ab 26bd 6b94 96bd 16d8 173c 4f6f fd3b
000000f0: 91ae f03d cb0c 133e adbc 903d 3b60 cebb
00000100: 6be8 f7bc aeb3 10bd ab97 073d 8561 733c
00000110: 48ab 3bbc eb9d 343d 7291 c93c 3148 42bc
00000120: f0c7 53ba 3f7b 133e 62ca 58bd 1727 803c
00000130: 7fda 7ebc 0f7e 183d 96fb 0f3e 09f9 9abd
00000140: a66b ce3d 9e64 3bbd c9f9 83bd 2c7e c23d
00000150: c4b8 a5bc 16ee 53bd e01c 373d fdab 543d
00000160: bfec 7b3d 8635 1a3d 3ce0 163d 77ef 183c
00000170: 1ff4 53bd dd96 71bd 6068 1dba a0ab 1c3e
00000180: 80e0 ebba 1d36 b63d e93a 4dbd 2093 6c3d
00000190: 3996 65bd e66a b7bc 3443 943c 165f 633b
000001a0: fff4 ddbc 5ee9 33bb f9e6 763d c4c2 9239
000001b0: da99 bf3d 95ae d83d 4cb2 f33d 2668 65bd
000001c0: 2cfa 073d befa 03bd 0bed ab3c 4c9f 143d
000001d0: c1ac 49bd b011 553c af56 84bd 7df9 fe3c
000001e0: bcf8 4f3c 07a0 913b 1d06 60bb 8269 f1bc
000001f0: 0a2a 643d e9b4 05bd 6bd8 bb3d ec91 4e3d

net.4.weight f4 [54, 128]
0.0637992 0.008817775 0.04053069 -0.09014336 0.07386798 -0.030731441 0.068225406 0.015704371
0.15182625 -0.051970616 0.079345696 0.018282525 -0.018755136 0.037935216 -0.05325012 0.017342078
-0.0964339 0.10716394 -0.05231823 0.14105646 -0.08617444 0.09447201 0.0463592 -0.07356578
0.075525925 -0.041127358 0.13075311 0.04870566 0.030288685 0.07863298 -0.07798508 0.074975245
0.121932164 -0.021893851 0.07030515 -0.06779553 -0.0577036 0.101495355 0.031503905 0.058320336
0.06888615 0.07237972 -0.0052610287 -0.060828988 0.02890922 0.009192856 -0.03337218 -0.027729835
0.018092006 0.06817592 0.051966276 -0.014386475 0.17155147 0.12736666 -0.026656536 0.046748497
-0.07205681 -0.06043116 -0.037947524 0.1663939 0.0015952635 -0.04274619 0.039395213 0.049651448
-0.021898814 -0.08107353 -0.06928486 -0.01367461 -0.008243963 0.05275794 -0.032233287 -0.046622485
-0.06378257 0.098695 -0.07596029 0.023598455 -0.08949511 0.054503877 0.053689685 0.058238126
-0.043518726 -0.03440306 -0.017071024 -0.01662336 0.054801814 0.03744603 0.07169205 0.056683086
0.034213953 -0.015497663 0.044309154 0.03291751 0.037557565 -0.0719461 -0.07803 0.083484486
-0.047048714 -0.035160605 0.046502624 0.08099693 0.026697492 0.07505613 0.044925667 -0.019282237
-0.015176006 0.05179201 0.037134424 -0.029818062 0.026885243 0.054584708 0.0065919324 0.028165951
-0.004051417 0.00498832 0.0387862 -0.043132834 0.05715286 -0.024796054 0.0033750013 0.031583283
0.086370796 0.03714133 0.067004345 -0.07892416 0.087188855 0.0002258122 0.07184505 -0.01645438
-0.017073276 0.01045884 0.09263336 -0.018504644 -0.030722871 0.050310295 0.027645469 -0.034610223
0.06868502 0.023846962 0.08739257 -0.08768647 0.04624903 -0.051272288 -0.0069051846 0.005245396
-0.0147096375 0.0634248 -0.010007946 0.033414904 0.06320104 0.08911779 -0.09162504 -0.0336463
-0.044102702 0.012045577 0.08462274 0.022237131 0.05557717 0.11175312 0.0025247084 -0.025674976
0.023029344 0.0752429 -0.020707488 -0.017464584 0.012424847 -0.035465658 0.057385836 -0.018935803
0.07073939 0.06159882 0.022909304 -0.05106978 0.06767808 -0.009857241 -0.04205986 0.08314281
-0.047545966 0.0014467314 -0.023211338 0.06472365 0.040356096 0.057446968 -0.06802805 -0.042697467
-0.010274024 -0.08826895 0.03664329 0.006338182 -0.0325086 0.09247913 0.096643746 0.10604277
-0.01600612 0.01957001 -0.027275901 -0.029141583 -0.07503948 -0.07279467 0.03137848 0.01697598
-0.023658114 0.07857559 0.029993765 0.08763511 0.041225664 0.07595106 0.01579433 -0.06730867
0.041498214 -0.06157036 0.08519422 0.0954075 0.044239514 0.04506365 -0.077835426 0.06867144
0.039533235 0.01009456 -0.0045851017 0.07184255 0.010001898 0.079716325 0.06842146 0.017295498
0.045688413 0.042098608 0.050280813 0.11025852 0.069485284 -0.00026308856 0.061202623 0.026075594
-0.07623251 -0.023075344 0.0659987 0.054546148 0.007360608 0.010236522 0.073001236 -0.03685079
-0.023773596 -0.08322466 0.09228045 0.11263978 -0.015921878 0.056113414 0.07902216 -0.028198136
0.10538534 0.12592645 0.005999682 0.08982778 -0.0071919975 -0.07984522 -0.018291207 -0.031965796
00000000: 28a9 823d 6e78 103c 8203 263d 159d b8bd
00000010: 1848 973d 81c0 fbbc c3b9 8b3d 74a6 803c
00000020: 5778 1b3e 24df 54bd ff7f a23d 3cc5 953c
00000030: 5fa4 99bc f561 1b3d cc1c 5abd f910 8e3c
00000040: 237f c5bd c578 db3d a44b 56bd 1b71 103e
00000050: 3a7c b0bd 8b7a c13d 25e3 3d3d a8a9 96bd
00000060: 56ad 9a3d 2975 28bd 25e4 053e 967f 473d
00000070: fa1f f83c 540a a13d a4b6 9fbd 9f8c 993d
00000080: 92b7 f93d bc5a b3bc 25fc 8f3d 62d8 8abd
00000090: 9c5a 6cbd ccdc cf3d 3d0a 013d 4ee1 6e3d
000000a0: 2f14 8d3d d23b 943d b564 acbb d127 79bd
000000b0: 07d3 ec3c a29d 163c 44b1 08bd ae29 e3bc
000000c0: b035 943c d19f 8b3d 97da 543d 40b5 6bbc
000000d0: 30ab 2f3e 686c 023e cf5e dabc 5a7b 3f3d
000000e0: 8592 93bd aa86 77bd dd6e 1bbd 2a63 2a3e
000000f0: 2918 d13a a116 2fbd e05c 213d 515f 4b3d
00000100: 2465 b3bc e109 a6bd 38e5 8dbd 790b 60bc
00000110: b011 07bc b618 583d 0d07 04bd 38f7 3ebd
00000120: 70a0 82bd 9b20 ca3d 1291 9bbd 8c51 c13c
00000130: 3649 b7bd 753f 5f3d b7e9 5b3d 1a8b 6e3d
00000140: b140 32bd 39ea 0cbd 88d8 8bbc b62d 88bc
00000150: de77 603d 0261 193d 48d3 923d 862c 683d
00000160: ee23 0c3d e9e9 7dbc 847d 353d 83d4 063d
00000170: f6d5 193d 7a58 93bd 31ce 9fbd eaf9 aa3d
00000180: 27b6 40bd 9104 10bd 8979 3e3d b8e1 a53d
00000190: b3b4 da3c 07b7 993d fa03 383d c8f5 9dbc
000001a0: c8a4 78bc dc23 543d 441a 183d 0245 f4bc
000001b0: 713e dc3c 3794 5f3d 2301 d83b 48bc e63c
000001c0: c0c1 84bb 1075 a33b 47de 1e3d 0eac 30bd
000001d0: 1e19 6a3d 1821 cbbc 202f 5d3b 795d 013d
000001e0: 2ce3 b03d 8221 183d 9339 893d fda2 a1bd
000001f0: 1290 b23d 00c8 6c39 7f23 933d 56cb 86bc
00000200: 41dd 8bbc 8e5b 2b3c 8fb6 bd3d 0d97 97bc
00000210: 88ae fbbc 2b12 4e3d c078 e23c 73c3 0dbd
00000220: bbaa 8c3d b45a c33c e0fa b23d f794 b3bd
00000230: 9f6f 3d3d e402 52bd e344 e2bb 92e1 ab3b
00000240: b100 71bc dde4 813d 5ef8 23bc 11de 083d
00000250: 8c6f 813d 6383 b63d e9a5 bbbd b4d0 09bd
00000260: 09a5 34bd d05a 453c b04e ad3d a52a b63c
00000270: e3a4 633d d2de e43d 9475 253b 5454 d2bc
00000280: 09a8 bc3c f318 9a3d c0a2 a9bc e311 8fbc
00000290: 9691 4b3c 7044 11bd 690d 6b3d 421f 9bbc
000002a0: d0df 903d 0b4f 7c3d 4bac bb3c 8c2e 51bd
000002b0: ce9a 8a3d 4480 21bc f646 2cbd c746 aa3d
000002c0: 8fbf 42bd 40a0 bd3a b425 bebc d58d 843d
000002d0: 6f4c 253d 834d 6b3d 4a52 8bbd 8ae3 2ebd
000002e0: 6154 28bc 5ac6 b4bd 4617 163d 86b0 cf3b
000002f0: bd27 05bd b365 bd3d 28ed c53d f42c d93d
00000300: 441f 83bc 4951 a03c b671 dfbc 54ba eebc
00000310: 4dae 99bd 5f15 95bd b986 003d 3611 8b3c
00000320: a9ce c1bc 3dec a03d 7cb5 f53c 097a b33d
00000330: 3edc 283d 3b8c 9b3d 1c63 813c 21d9 89bd
00000340: 08fa 293d 3431 7cbd 4f7a ae3d 0265 c33d
00000350: 7e34 353d a994 383d 2e68 9fbd 9da3 8c3d
00000360: 9aed 213d a763 253c 9f3e 96bb 3022 933d
00000370: 00df 233c 5042 a33d 8d20 8c3d 4aaf 8d3c
00000380: c623 3b3d 976f 2c3d 41f3 4d3d 38cf e13d
00000390: 4d4e 8e3d 26ef 89b9 9aaf 7a3d 7c9c d53c
000003a0: ca1f 9cbd 8108 bdbc 542a 873d c86b 5f3d
000003b0: 4131 f13b 16b7 273c ac81 953d dbf0 16bd
000003c0: d8c0 c2bc b171 aabd 88fd bc3d afaf e63d
000003d0: 996e 82bc 2ed7 653d 5fd6 a13d c7ff e6bc
000003e0: 45d4 d73d ddf2 003e fb98 c43b a1f7 b73d
000003f0: d9aa ebbb e485 a3bd 71d7 95bc 91ee 02bd

net.4.bias f4 [54]
0.0984131 0.004581942 0.061798453 0.009655459 0.07152102 0.018157879 0.12881616 -0.018501628
0.09235894 0.06213905 -0.07039149 0.12606996 0.009823777 0.06339525 0.11135347 0.10312216
0.0010005238 0.056125026 0.016583025 -0.0047953185 0.085182525 0.034653556 0.084055595 0.0093871225
0.059072893 0.023387032 -0.010742424 0.015793793 0.092580296 0.041667406 0.012153441 -0.005407261
0.050281033 0.16370533 0.0731163 0.10248108 -0.07277861 -0.0116008 0.12770413 0.0558181
0.09288528 0.08365617 0.0037463102 -0.029844742 0.026019244 0.051579695 0.090473086 0.122112155
0.07128845 0.051946986 0.028113903 0.03698217 0.020956138 0.12774867
00000000: cf8c c93d 1e24 963b 6020 7d3d ee31 1e3c
00000010: 9d79 923d d5bf 943c 62e8 033e ba90 97bc
00000020: af26 bd3d 8485 7e3d 6a29 90bd 7c18 013e
00000030: e8f3 203c 5ed5 813d 4a0d e43d b631 d33d
00000040: 0224 833a 5be3 653d 20d9 873c 0c22 9dbb
00000050: 2d74 ae3d e3f0 0d3d 5725 ac3d 72cc 193c
00000060: 6bf6 713d 2996 bf3c fe00 30bc fc61 813c
00000070: bd9a bd3d 71ab 2a3d 3a1f 473c 652f b1bb
00000080: 7cf3 4d3d 5fa2 273e 00be 953d 9ae1 d13d
00000090: f40c 95bd 4811 3ebc dfc4 023e 85a1 643d
000000a0: a33a be3d ed53 ab3d a884 753b f67c f4bc
000000b0: 4f26 d53c 3b45 533d f449 b93d f015 fa3d
000000c0: aeff 913d 5dc6 543d 214f e63c 9e7a 173d
000000d0: 35ac ab3c 8cd0 023e
